…
Start Tensorboard with "tensorboard --logdir runs/train", view at http://localhost:6006/
Hyperparameters {'lr0': 0.01, 'lrf': 0.2, 'momentum': 0.937, 'weight_decay': 0.0005, 'warmup_epochs': 3.0, 'warmup_momentum': 0.8, 'warmup_bias_lr': 0.1, 'box': 0.05, 'cls': 0.5, 'landmark': 0.005, 'cls_pw': 1.0, 'obj': 1.0, 'obj_pw': 1.0, 'iou_t': 0.2, 'anchor_t': 4.0, 'fl_gamma': 0.0, 'hsv_h': 0.015, 'hsv_s': 0.7, 'hsv_v': 0.4, 'degrees': 0.0, 'translate': 0.1, 'scale': 0.5, 'shear': 0.5, 'perspective': 0.0, 'flipud': 0.0, 'fliplr': 0.5, 'mosaic': 0.5, 'mixup': 0.0}

                 from  n    params  module                                  arguments
  0                -1  1     30848  models.common.StemBlock                 [3, 64, 3, 2]
  1                -1  1    148736  models.common.C3                        [64, 128, 3]
  2                -1  1    295424  models.common.Conv                      [128, 256, 3, 2]
  3                -1  1   1611264  models.common.C3                        [256, 256, 9]
  4                -1  1   1180672  models.common.Conv                      [256, 512, 3, 2]
  5                -1  1   6433792  models.common.C3                        [512, 512, 9]
  6                -1  1   4720640  models.common.Conv                      [512, 1024, 3, 2]
  7                -1  1   2624512  models.common.SPP                       [1024, 1024, [3, 5, 7]]
  8                -1  1   9971712  models.common.C3                        [1024, 1024, 3, False]
  9                -1  1    525312  models.common.Conv                      [1024, 512, 1, 1]
 10                -1  1         0  torch.nn.modules.upsampling.Upsample    [None, 2, 'nearest']
 11           [-1, 5]  1         0  models.common.Concat                    [1]
 12                -1  1   2757632  models.common.C3                        [1024, 512, 3, False]
 13                -1  1    131584  models.common.Conv                      [512, 256, 1, 1]
 14                -1  1         0  torch.nn.modules.upsampling.Upsample    [None, 2, 'nearest']
 15           [-1, 3]  1         0  models.common.Concat                    [1]
 16                -1  1    690688  models.common.C3                        [512, 256, 3, False]
 17                -1  1    590336  models.common.Conv                      [256, 256, 3, 2]
 18          [-1, 13]  1         0  models.common.Concat                    [1]
 19                -1  1   2495488  models.common.C3                        [512, 512, 3, False]
 20                -1  1   2360320  models.common.Conv                      [512, 512, 3, 2]
 21           [-1, 9]  1         0  models.common.Concat                    [1]
 22                -1  1   9971712  models.common.C3                        [1024, 1024, 3, False]
 23      [16, 19, 22]  1     86160  models.yolo.Detect                      [1, [[4, 5, 8, 10, 13, 16], [23, 29, 43, 55, 73, 105], [146, 217, 231, 300, 335, 433]], [256, 512, 1024]]
Model Summary: 508 layers, 46626832 parameters, 46626832 gradients, 111.3 GFLOPS

Transferred 54/662 items from weights/yolov5l.pt
Optimizer groups: 112 .bias, 112 conv.weight, 109 other
Scanning 'data/widerface/train.cache' for images and labels... 12880 found, 0 missing, 0 empty, 78 corrupted: 100%|██████████| 12880/12880 [00:00<?, ?it/s]
…
